…
2018-05-23 09:08:43.316155: I tensorflow/core/common_runtime/gpu/gpu_device.cc:1120] Creating TensorFlow device (/device:GPU:1) -> (device: 1, name: GeForce GTX 980, pci bus id: 0000:04:00.0, compute capability: 5.2)
Precondition Before Average: (?, 4, 2048)
Precondition After Average: (?, 1, 2048)
Precondition After Averagere reshape: (?, 2048)
Effct Before Average: (?, 4, 2048)
Effect After Average: (?, 1, 2048)
Effect After Averagere reshape: (?, 2048)
__________________________________________________________________________________________________
Layer (type)                    Output Shape         Param #     Connected to
==================================================================================================
input_1 (InputLayer)            (None, 118, 118, 3)  0
__________________________________________________________________________________________________
input_2 (InputLayer)            (None, 118, 118, 3)  0
__________________________________________________________________________________________________
input_3 (InputLayer)            (None, 118, 118, 3)  0
__________________________________________________________________________________________________
input_4 (InputLayer)            (None, 118, 118, 3)  0
__________________________________________________________________________________________________
model_1 (Model)                 (None, 2048)         28350272    input_1[0][0]
                                                                 input_2[0][0]
                                                                 input_3[0][0]
                                                                 input_4[0][0]
__________________________________________________________________________________________________
input_5 (InputLayer)            (None, 118, 118, 3)  0
__________________________________________________________________________________________________
input_6 (InputLayer)            (None, 118, 118, 3)  0
__________________________________________________________________________________________________
input_7 (InputLayer)            (None, 118, 118, 3)  0
__________________________________________________________________________________________________
input_8 (InputLayer)            (None, 118, 118, 3)  0
__________________________________________________________________________________________________
reshape_1 (Reshape)             (None, 1, 2048)      0           model_1[1][0]
__________________________________________________________________________________________________
reshape_2 (Reshape)             (None, 1, 2048)      0           model_1[2][0]
__________________________________________________________________________________________________
reshape_3 (Reshape)             (None, 1, 2048)      0           model_1[3][0]
__________________________________________________________________________________________________
reshape_4 (Reshape)             (None, 1, 2048)      0           model_1[4][0]
__________________________________________________________________________________________________
model_2 (Model)                 (None, 2048)         28350272    input_5[0][0]
                                                                 input_6[0][0]
                                                                 input_7[0][0]
                                                                 input_8[0][0]
__________________________________________________________________________________________________
lambda_1 (Lambda)               (None, 4, 2048)      0           reshape_1[0][0]
                                                                 reshape_2[0][0]
                                                                 reshape_3[0][0]
                                                                 reshape_4[0][0]
__________________________________________________________________________________________________
reshape_6 (Reshape)             (None, 1, 2048)      0           model_2[1][0]
__________________________________________________________________________________________________
reshape_7 (Reshape)             (None, 1, 2048)      0           model_2[2][0]
__________________________________________________________________________________________________
reshape_8 (Reshape)             (None, 1, 2048)      0           model_2[3][0]
__________________________________________________________________________________________________
reshape_9 (Reshape)             (None, 1, 2048)      0           model_2[4][0]
__________________________________________________________________________________________________
average_pooling1d_1 (AveragePoo (None, 1, 2048)      0           lambda_1[0][0]
__________________________________________________________________________________________________
lambda_2 (Lambda)               (None, 4, 2048)      0           reshape_6[0][0]
                                                                 reshape_7[0][0]
                                                                 reshape_8[0][0]
                                                                 reshape_9[0][0]
__________________________________________________________________________________________________
reshape_5 (Reshape)             (None, 2048)         0           average_pooling1d_1[0][0]
__________________________________________________________________________________________________
average_pooling1d_2 (AveragePoo (None, 1, 2048)      0           lambda_2[0][0]
__________________________________________________________________________________________________
dense_1 (Dense)                 (None, 512)          1049088     reshape_5[0][0]
__________________________________________________________________________________________________
reshape_10 (Reshape)            (None, 2048)         0           average_pooling1d_2[0][0]
__________________________________________________________________________________________________
dense_3 (Dense)                 (None, 512)          262144      dense_1[0][0]
__________________________________________________________________________________________________
dense_2 (Dense)                 (None, 512)          1049088     reshape_10[0][0]
__________________________________________________________________________________________________
dense_4 (Dense)                 (None, 512)          262144      dense_1[0][0]
__________________________________________________________________________________________________
dense_5 (Dense)                 (None, 512)          262144      dense_1[0][0]
__________________________________________________________________________________________________
dense_6 (Dense)                 (None, 512)          262144      dense_1[0][0]
__________________________________________________________________________________________________
dense_7 (Dense)                 (None, 512)          262144      dense_1[0][0]
__________________________________________________________________________________________________
dense_8 (Dense)                 (None, 512)          262144      dense_1[0][0]
__________________________________________________________________________________________________
dense_9 (Dense)                 (None, 512)          262144      dense_1[0][0]
__________________________________________________________________________________________________
dense_10 (Dense)                (None, 512)          262144      dense_1[0][0]
__________________________________________________________________________________________________
dense_11 (Dense)                (None, 512)          262144      dense_1[0][0]
__________________________________________________________________________________________________
dense_12 (Dense)                (None, 512)          262144      dense_1[0][0]
__________________________________________________________________________________________________
dense_13 (Dense)                (None, 512)          262144      dense_1[0][0]
__________________________________________________________________________________________________
dense_14 (Dense)                (None, 512)          262144      dense_1[0][0]
__________________________________________________________________________________________________
dense_15 (Dense)                (None, 512)          262144      dense_1[0][0]
__________________________________________________________________________________________________
dense_16 (Dense)                (None, 512)          262144      dense_1[0][0]
__________________________________________________________________________________________________
dense_17 (Dense)                (None, 512)          262144      dense_1[0][0]
__________________________________________________________________________________________________
dense_18 (Dense)                (None, 512)          262144      dense_1[0][0]
__________________________________________________________________________________________________
dense_19 (Dense)                (None, 512)          262144      dense_1[0][0]
__________________________________________________________________________________________________
dense_20 (Dense)                (None, 512)          262144      dense_1[0][0]
__________________________________________________________________________________________________
dense_21 (Dense)                (None, 512)          262144      dense_1[0][0]
__________________________________________________________________________________________________
dense_22 (Dense)                (None, 512)          262144      dense_1[0][0]
__________________________________________________________________________________________________
dense_23 (Dense)                (None, 512)          262144      dense_1[0][0]
__________________________________________________________________________________________________
dense_24 (Dense)                (None, 512)          262144      dense_1[0][0]
__________________________________________________________________________________________________
dense_25 (Dense)                (None, 512)          262144      dense_1[0][0]
__________________________________________________________________________________________________
dense_26 (Dense)                (None, 512)          262144      dense_1[0][0]
__________________________________________________________________________________________________
dense_27 (Dense)                (None, 512)          262144      dense_1[0][0]
__________________________________________________________________________________________________
dense_28 (Dense)                (None, 512)          262144      dense_1[0][0]
__________________________________________________________________________________________________
dense_29 (Dense)                (None, 512)          262144      dense_1[0][0]
__________________________________________________________________________________________________
dense_30 (Dense)                (None, 512)          262144      dense_1[0][0]
__________________________________________________________________________________________________
dense_31 (Dense)                (None, 512)          262144      dense_1[0][0]
__________________________________________________________________________________________________
dense_32 (Dense)                (None, 512)          262144      dense_1[0][0]
__________________________________________________________________________________________________
dense_33 (Dense)                (None, 512)          262144      dense_1[0][0]
__________________________________________________________________________________________________
dense_34 (Dense)                (None, 512)          262144      dense_1[0][0]
__________________________________________________________________________________________________
dense_35 (Dense)                (None, 512)          262144      dense_1[0][0]
__________________________________________________________________________________________________
dense_36 (Dense)                (None, 512)          262144      dense_1[0][0]
__________________________________________________________________________________________________
dense_37 (Dense)                (None, 512)          262144      dense_1[0][0]
__________________________________________________________________________________________________
dense_38 (Dense)                (None, 512)          262144      dense_1[0][0]
__________________________________________________________________________________________________
dense_39 (Dense)                (None, 512)          262144      dense_1[0][0]
__________________________________________________________________________________________________
dense_40 (Dense)                (None, 512)          262144      dense_1[0][0]
__________________________________________________________________________________________________
dense_41 (Dense)                (None, 512)          262144      dense_1[0][0]
__________________________________________________________________________________________________
dense_42 (Dense)                (None, 512)          262144      dense_1[0][0]
__________________________________________________________________________________________________
dense_43 (Dense)                (None, 512)          262144      dense_1[0][0]
__________________________________________________________________________________________________
dense_44 (Dense)                (None, 512)          262144      dense_1[0][0]
__________________________________________________________________________________________________
dense_45 (Dense)                (None, 512)          262144      dense_1[0][0]
__________________________________________________________________________________________________
dot_1 (Dot)                     (None, 1)            0           dense_3[0][0]
                                                                 dense_3[0][0]
__________________________________________________________________________________________________
dot_2 (Dot)                     (None, 1)            0           dense_2[0][0]
                                                                 dense_2[0][0]
__________________________________________________________________________________________________
dot_3 (Dot)                     (None, 1)            0           dense_3[0][0]
                                                                 dense_2[0][0]
__________________________________________________________________________________________________
dot_4 (Dot)                     (None, 1)            0           dense_4[0][0]
                                                                 dense_4[0][0]
__________________________________________________________________________________________________
dot_5 (Dot)                     (None, 1)            0           dense_2[0][0]
                                                                 dense_2[0][0]
__________________________________________________________________________________________________
dot_6 (Dot)                     (None, 1)            0           dense_4[0][0]
                                                                 dense_2[0][0]
__________________________________________________________________________________________________
dot_7 (Dot)                     (None, 1)            0           dense_5[0][0]
                                                                 dense_5[0][0]
__________________________________________________________________________________________________
dot_8 (Dot)                     (None, 1)            0           dense_2[0][0]
                                                                 dense_2[0][0]
__________________________________________________________________________________________________
dot_9 (Dot)                     (None, 1)            0           dense_5[0][0]
                                                                 dense_2[0][0]
__________________________________________________________________________________________________
dot_10 (Dot)                    (None, 1)            0           dense_6[0][0]
                                                                 dense_6[0][0]
__________________________________________________________________________________________________
dot_11 (Dot)                    (None, 1)            0           dense_2[0][0]
                                                                 dense_2[0][0]
__________________________________________________________________________________________________
dot_12 (Dot)                    (None, 1)            0           dense_6[0][0]
                                                                 dense_2[0][0]
__________________________________________________________________________________________________
dot_13 (Dot)                    (None, 1)            0           dense_7[0][0]
                                                                 dense_7[0][0]
__________________________________________________________________________________________________
dot_14 (Dot)                    (None, 1)            0           dense_2[0][0]
                                                                 dense_2[0][0]
__________________________________________________________________________________________________
dot_15 (Dot)                    (None, 1)            0           dense_7[0][0]
                                                                 dense_2[0][0]
__________________________________________________________________________________________________
dot_16 (Dot)                    (None, 1)            0           dense_8[0][0]
                                                                 dense_8[0][0]
__________________________________________________________________________________________________
dot_17 (Dot)                    (None, 1)            0           dense_2[0][0]
                                                                 dense_2[0][0]
__________________________________________________________________________________________________
dot_18 (Dot)                    (None, 1)            0           dense_8[0][0]
                                                                 dense_2[0][0]
__________________________________________________________________________________________________
dot_19 (Dot)                    (None, 1)            0           dense_9[0][0]
                                                                 dense_9[0][0]
__________________________________________________________________________________________________
dot_20 (Dot)                    (None, 1)            0           dense_2[0][0]
                                                                 dense_2[0][0]
__________________________________________________________________________________________________
dot_21 (Dot)                    (None, 1)            0           dense_9[0][0]
                                                                 dense_2[0][0]
__________________________________________________________________________________________________
dot_22 (Dot)                    (None, 1)            0           dense_10[0][0]
                                                                 dense_10[0][0]
__________________________________________________________________________________________________
dot_23 (Dot)                    (None, 1)            0           dense_2[0][0]
                                                                 dense_2[0][0]
__________________________________________________________________________________________________
dot_24 (Dot)                    (None, 1)            0           dense_10[0][0]
                                                                 dense_2[0][0]
__________________________________________________________________________________________________
dot_25 (Dot)                    (None, 1)            0           dense_11[0][0]
                                                                 dense_11[0][0]
__________________________________________________________________________________________________
dot_26 (Dot)                    (None, 1)            0           dense_2[0][0]
                                                                 dense_2[0][0]
__________________________________________________________________________________________________
dot_27 (Dot)                    (None, 1)            0           dense_11[0][0]
                                                                 dense_2[0][0]
__________________________________________________________________________________________________
dot_28 (Dot)                    (None, 1)            0           dense_12[0][0]
                                                                 dense_12[0][0]
__________________________________________________________________________________________________
dot_29 (Dot)                    (None, 1)            0           dense_2[0][0]
                                                                 dense_2[0][0]
__________________________________________________________________________________________________
dot_30 (Dot)                    (None, 1)            0           dense_12[0][0]
                                                                 dense_2[0][0]
__________________________________________________________________________________________________
dot_31 (Dot)                    (None, 1)            0           dense_13[0][0]
                                                                 dense_13[0][0]
__________________________________________________________________________________________________
dot_32 (Dot)                    (None, 1)            0           dense_2[0][0]
                                                                 dense_2[0][0]
__________________________________________________________________________________________________
dot_33 (Dot)                    (None, 1)            0           dense_13[0][0]
                                                                 dense_2[0][0]
__________________________________________________________________________________________________
dot_34 (Dot)                    (None, 1)            0           dense_14[0][0]
                                                                 dense_14[0][0]
__________________________________________________________________________________________________
dot_35 (Dot)                    (None, 1)            0           dense_2[0][0]
                                                                 dense_2[0][0]
__________________________________________________________________________________________________
dot_36 (Dot)                    (None, 1)            0           dense_14[0][0]
                                                                 dense_2[0][0]
__________________________________________________________________________________________________
dot_37 (Dot)                    (None, 1)            0           dense_15[0][0]
                                                                 dense_15[0][0]
__________________________________________________________________________________________________
dot_38 (Dot)                    (None, 1)            0           dense_2[0][0]
                                                                 dense_2[0][0]
__________________________________________________________________________________________________
dot_39 (Dot)                    (None, 1)            0           dense_15[0][0]
                                                                 dense_2[0][0]
__________________________________________________________________________________________________
dot_40 (Dot)                    (None, 1)            0           dense_16[0][0]
                                                                 dense_16[0][0]
__________________________________________________________________________________________________
dot_41 (Dot)                    (None, 1)            0           dense_2[0][0]
                                                                 dense_2[0][0]
__________________________________________________________________________________________________
dot_42 (Dot)                    (None, 1)            0           dense_16[0][0]
                                                                 dense_2[0][0]
__________________________________________________________________________________________________
dot_43 (Dot)                    (None, 1)            0           dense_17[0][0]
                                                                 dense_17[0][0]
__________________________________________________________________________________________________
dot_44 (Dot)                    (None, 1)            0           dense_2[0][0]
                                                                 dense_2[0][0]
__________________________________________________________________________________________________
dot_45 (Dot)                    (None, 1)            0           dense_17[0][0]
                                                                 dense_2[0][0]
__________________________________________________________________________________________________
dot_46 (Dot)                    (None, 1)            0           dense_18[0][0]
                                                                 dense_18[0][0]
__________________________________________________________________________________________________
dot_47 (Dot)                    (None, 1)            0           dense_2[0][0]
                                                                 dense_2[0][0]
__________________________________________________________________________________________________
dot_48 (Dot)                    (None, 1)            0           dense_18[0][0]
                                                                 dense_2[0][0]
__________________________________________________________________________________________________
dot_49 (Dot)                    (None, 1)            0           dense_19[0][0]
                                                                 dense_19[0][0]
__________________________________________________________________________________________________
dot_50 (Dot)                    (None, 1)            0           dense_2[0][0]
                                                                 dense_2[0][0]
__________________________________________________________________________________________________
dot_51 (Dot)                    (None, 1)            0           dense_19[0][0]
                                                                 dense_2[0][0]
__________________________________________________________________________________________________
dot_52 (Dot)                    (None, 1)            0           dense_20[0][0]
                                                                 dense_20[0][0]
__________________________________________________________________________________________________
dot_53 (Dot)                    (None, 1)            0           dense_2[0][0]
                                                                 dense_2[0][0]
__________________________________________________________________________________________________
dot_54 (Dot)                    (None, 1)            0           dense_20[0][0]
                                                                 dense_2[0][0]
__________________________________________________________________________________________________
dot_55 (Dot)                    (None, 1)            0           dense_21[0][0]
                                                                 dense_21[0][0]
__________________________________________________________________________________________________
dot_56 (Dot)                    (None, 1)            0           dense_2[0][0]
                                                                 dense_2[0][0]
__________________________________________________________________________________________________
dot_57 (Dot)                    (None, 1)            0           dense_21[0][0]
                                                                 dense_2[0][0]
__________________________________________________________________________________________________
dot_58 (Dot)                    (None, 1)            0           dense_22[0][0]
                                                                 dense_22[0][0]
__________________________________________________________________________________________________
dot_59 (Dot)                    (None, 1)            0           dense_2[0][0]
                                                                 dense_2[0][0]
__________________________________________________________________________________________________
dot_60 (Dot)                    (None, 1)            0           dense_22[0][0]
                                                                 dense_2[0][0]
__________________________________________________________________________________________________
dot_61 (Dot)                    (None, 1)            0           dense_23[0][0]
                                                                 dense_23[0][0]
__________________________________________________________________________________________________
dot_62 (Dot)                    (None, 1)            0           dense_2[0][0]
                                                                 dense_2[0][0]
__________________________________________________________________________________________________
dot_63 (Dot)                    (None, 1)            0           dense_23[0][0]
                                                                 dense_2[0][0]
__________________________________________________________________________________________________
dot_64 (Dot)                    (None, 1)            0           dense_24[0][0]
                                                                 dense_24[0][0]
__________________________________________________________________________________________________
dot_65 (Dot)                    (None, 1)            0           dense_2[0][0]
                                                                 dense_2[0][0]
__________________________________________________________________________________________________
dot_66 (Dot)                    (None, 1)            0           dense_24[0][0]
                                                                 dense_2[0][0]
__________________________________________________________________________________________________
dot_67 (Dot)                    (None, 1)            0           dense_25[0][0]
                                                                 dense_25[0][0]
__________________________________________________________________________________________________
dot_68 (Dot)                    (None, 1)            0           dense_2[0][0]
                                                                 dense_2[0][0]
__________________________________________________________________________________________________
dot_69 (Dot)                    (None, 1)            0           dense_25[0][0]
                                                                 dense_2[0][0]
__________________________________________________________________________________________________
dot_70 (Dot)                    (None, 1)            0           dense_26[0][0]
                                                                 dense_26[0][0]
__________________________________________________________________________________________________
dot_71 (Dot)                    (None, 1)            0           dense_2[0][0]
                                                                 dense_2[0][0]
__________________________________________________________________________________________________
dot_72 (Dot)                    (None, 1)            0           dense_26[0][0]
                                                                 dense_2[0][0]
__________________________________________________________________________________________________
dot_73 (Dot)                    (None, 1)            0           dense_27[0][0]
                                                                 dense_27[0][0]
__________________________________________________________________________________________________
dot_74 (Dot)                    (None, 1)            0           dense_2[0][0]
                                                                 dense_2[0][0]
__________________________________________________________________________________________________
dot_75 (Dot)                    (None, 1)            0           dense_27[0][0]
                                                                 dense_2[0][0]
__________________________________________________________________________________________________
dot_76 (Dot)                    (None, 1)            0           dense_28[0][0]
                                                                 dense_28[0][0]
__________________________________________________________________________________________________
dot_77 (Dot)                    (None, 1)            0           dense_2[0][0]
                                                                 dense_2[0][0]
__________________________________________________________________________________________________
dot_78 (Dot)                    (None, 1)            0           dense_28[0][0]
                                                                 dense_2[0][0]
__________________________________________________________________________________________________
dot_79 (Dot)                    (None, 1)            0           dense_29[0][0]
                                                                 dense_29[0][0]
__________________________________________________________________________________________________
dot_80 (Dot)                    (None, 1)            0           dense_2[0][0]
                                                                 dense_2[0][0]
__________________________________________________________________________________________________
dot_81 (Dot)                    (None, 1)            0           dense_29[0][0]
                                                                 dense_2[0][0]
__________________________________________________________________________________________________
dot_82 (Dot)                    (None, 1)            0           dense_30[0][0]
                                                                 dense_30[0][0]
__________________________________________________________________________________________________
dot_83 (Dot)                    (None, 1)            0           dense_2[0][0]
                                                                 dense_2[0][0]
__________________________________________________________________________________________________
dot_84 (Dot)                    (None, 1)            0           dense_30[0][0]
                                                                 dense_2[0][0]
__________________________________________________________________________________________________
dot_85 (Dot)                    (None, 1)            0           dense_31[0][0]
                                                                 dense_31[0][0]
__________________________________________________________________________________________________
dot_86 (Dot)                    (None, 1)            0           dense_2[0][0]
                                                                 dense_2[0][0]
__________________________________________________________________________________________________
dot_87 (Dot)                    (None, 1)            0           dense_31[0][0]
                                                                 dense_2[0][0]
__________________________________________________________________________________________________
dot_88 (Dot)                    (None, 1)            0           dense_32[0][0]
                                                                 dense_32[0][0]
__________________________________________________________________________________________________
dot_89 (Dot)                    (None, 1)            0           dense_2[0][0]
                                                                 dense_2[0][0]
__________________________________________________________________________________________________
dot_90 (Dot)                    (None, 1)            0           dense_32[0][0]
                                                                 dense_2[0][0]
__________________________________________________________________________________________________
dot_91 (Dot)                    (None, 1)            0           dense_33[0][0]
                                                                 dense_33[0][0]
__________________________________________________________________________________________________
dot_92 (Dot)                    (None, 1)            0           dense_2[0][0]
                                                                 dense_2[0][0]
__________________________________________________________________________________________________
dot_93 (Dot)                    (None, 1)            0           dense_33[0][0]
                                                                 dense_2[0][0]
__________________________________________________________________________________________________
dot_94 (Dot)                    (None, 1)            0           dense_34[0][0]
                                                                 dense_34[0][0]
__________________________________________________________________________________________________
dot_95 (Dot)                    (None, 1)            0           dense_2[0][0]
                                                                 dense_2[0][0]
__________________________________________________________________________________________________
dot_96 (Dot)                    (None, 1)            0           dense_34[0][0]
                                                                 dense_2[0][0]
__________________________________________________________________________________________________
dot_97 (Dot)                    (None, 1)            0           dense_35[0][0]
                                                                 dense_35[0][0]
__________________________________________________________________________________________________
dot_98 (Dot)                    (None, 1)            0           dense_2[0][0]
                                                                 dense_2[0][0]
__________________________________________________________________________________________________
dot_99 (Dot)                    (None, 1)            0           dense_35[0][0]
                                                                 dense_2[0][0]
__________________________________________________________________________________________________
dot_100 (Dot)                   (None, 1)            0           dense_36[0][0]
                                                                 dense_36[0][0]
__________________________________________________________________________________________________
dot_101 (Dot)                   (None, 1)            0           dense_2[0][0]
                                                                 dense_2[0][0]
__________________________________________________________________________________________________
dot_102 (Dot)                   (None, 1)            0           dense_36[0][0]
                                                                 dense_2[0][0]
__________________________________________________________________________________________________
dot_103 (Dot)                   (None, 1)            0           dense_37[0][0]
                                                                 dense_37[0][0]
__________________________________________________________________________________________________
dot_104 (Dot)                   (None, 1)            0           dense_2[0][0]
                                                                 dense_2[0][0]
__________________________________________________________________________________________________
dot_105 (Dot)                   (None, 1)            0           dense_37[0][0]
                                                                 dense_2[0][0]
__________________________________________________________________________________________________
dot_106 (Dot)                   (None, 1)            0           dense_38[0][0]
                                                                 dense_38[0][0]
__________________________________________________________________________________________________
dot_107 (Dot)                   (None, 1)            0           dense_2[0][0]
                                                                 dense_2[0][0]
__________________________________________________________________________________________________
dot_108 (Dot)                   (None, 1)            0           dense_38[0][0]
                                                                 dense_2[0][0]
__________________________________________________________________________________________________
dot_109 (Dot)                   (None, 1)            0           dense_39[0][0]
                                                                 dense_39[0][0]
__________________________________________________________________________________________________
dot_110 (Dot)                   (None, 1)            0           dense_2[0][0]
                                                                 dense_2[0][0]
__________________________________________________________________________________________________
dot_111 (Dot)                   (None, 1)            0           dense_39[0][0]
                                                                 dense_2[0][0]
__________________________________________________________________________________________________
dot_112 (Dot)                   (None, 1)            0           dense_40[0][0]
                                                                 dense_40[0][0]
__________________________________________________________________________________________________
dot_113 (Dot)                   (None, 1)            0           dense_2[0][0]
                                                                 dense_2[0][0]
__________________________________________________________________________________________________
dot_114 (Dot)                   (None, 1)            0           dense_40[0][0]
                                                                 dense_2[0][0]
__________________________________________________________________________________________________
dot_115 (Dot)                   (None, 1)            0           dense_41[0][0]
                                                                 dense_41[0][0]
__________________________________________________________________________________________________
dot_116 (Dot)                   (None, 1)            0           dense_2[0][0]
                                                                 dense_2[0][0]
__________________________________________________________________________________________________
dot_117 (Dot)                   (None, 1)            0           dense_41[0][0]
                                                                 dense_2[0][0]
__________________________________________________________________________________________________
dot_118 (Dot)                   (None, 1)            0           dense_42[0][0]
                                                                 dense_42[0][0]
__________________________________________________________________________________________________
dot_119 (Dot)                   (None, 1)            0           dense_2[0][0]
                                                                 dense_2[0][0]
__________________________________________________________________________________________________
dot_120 (Dot)                   (None, 1)            0           dense_42[0][0]
                                                                 dense_2[0][0]
__________________________________________________________________________________________________
dot_121 (Dot)                   (None, 1)            0           dense_43[0][0]
                                                                 dense_43[0][0]
__________________________________________________________________________________________________
dot_122 (Dot)                   (None, 1)            0           dense_2[0][0]
                                                                 dense_2[0][0]
__________________________________________________________________________________________________
dot_123 (Dot)                   (None, 1)            0           dense_43[0][0]
                                                                 dense_2[0][0]
__________________________________________________________________________________________________
dot_124 (Dot)                   (None, 1)            0           dense_44[0][0]
                                                                 dense_44[0][0]
__________________________________________________________________________________________________
dot_125 (Dot)                   (None, 1)            0           dense_2[0][0]
                                                                 dense_2[0][0]
__________________________________________________________________________________________________
dot_126 (Dot)                   (None, 1)            0           dense_44[0][0]
                                                                 dense_2[0][0]
__________________________________________________________________________________________________
dot_127 (Dot)                   (None, 1)            0           dense_45[0][0]
                                                                 dense_45[0][0]
__________________________________________________________________________________________________
dot_128 (Dot)                   (None, 1)            0           dense_2[0][0]
                                                                 dense_2[0][0]
__________________________________________________________________________________________________
dot_129 (Dot)                   (None, 1)            0           dense_45[0][0]
                                                                 dense_2[0][0]
__________________________________________________________________________________________________
lambda_3 (Lambda)               (None, 1)            0           dot_1[0][0]
                                                                 dot_2[0][0]
                                                                 dot_3[0][0]
__________________________________________________________________________________________________
lambda_4 (Lambda)               (None, 1)            0           dot_4[0][0]
                                                                 dot_5[0][0]
                                                                 dot_6[0][0]
__________________________________________________________________________________________________
lambda_5 (Lambda)               (None, 1)            0           dot_7[0][0]
                                                                 dot_8[0][0]
                                                                 dot_9[0][0]
__________________________________________________________________________________________________
lambda_6 (Lambda)               (None, 1)            0           dot_10[0][0]
                                                                 dot_11[0][0]
                                                                 dot_12[0][0]
__________________________________________________________________________________________________
lambda_7 (Lambda)               (None, 1)            0           dot_13[0][0]
                                                                 dot_14[0][0]
                                                                 dot_15[0][0]
__________________________________________________________________________________________________
lambda_8 (Lambda)               (None, 1)            0           dot_16[0][0]
                                                                 dot_17[0][0]
                                                                 dot_18[0][0]
__________________________________________________________________________________________________
lambda_9 (Lambda)               (None, 1)            0           dot_19[0][0]
                                                                 dot_20[0][0]
                                                                 dot_21[0][0]
__________________________________________________________________________________________________
lambda_10 (Lambda)              (None, 1)            0           dot_22[0][0]
                                                                 dot_23[0][0]
                                                                 dot_24[0][0]
__________________________________________________________________________________________________
lambda_11 (Lambda)              (None, 1)            0           dot_25[0][0]
                                                                 dot_26[0][0]
                                                                 dot_27[0][0]
__________________________________________________________________________________________________
lambda_12 (Lambda)              (None, 1)            0           dot_28[0][0]
                                                                 dot_29[0][0]
                                                                 dot_30[0][0]
__________________________________________________________________________________________________
lambda_13 (Lambda)              (None, 1)            0           dot_31[0][0]
                                                                 dot_32[0][0]
                                                                 dot_33[0][0]
__________________________________________________________________________________________________
lambda_14 (Lambda)              (None, 1)            0           dot_34[0][0]
                                                                 dot_35[0][0]
                                                                 dot_36[0][0]
__________________________________________________________________________________________________
lambda_15 (Lambda)              (None, 1)            0           dot_37[0][0]
                                                                 dot_38[0][0]
                                                                 dot_39[0][0]
__________________________________________________________________________________________________
lambda_16 (Lambda)              (None, 1)            0           dot_40[0][0]
                                                                 dot_41[0][0]
                                                                 dot_42[0][0]
__________________________________________________________________________________________________
lambda_17 (Lambda)              (None, 1)            0           dot_43[0][0]
                                                                 dot_44[0][0]
                                                                 dot_45[0][0]
__________________________________________________________________________________________________
lambda_18 (Lambda)              (None, 1)            0           dot_46[0][0]
                                                                 dot_47[0][0]
                                                                 dot_48[0][0]
__________________________________________________________________________________________________
lambda_19 (Lambda)              (None, 1)            0           dot_49[0][0]
                                                                 dot_50[0][0]
                                                                 dot_51[0][0]
__________________________________________________________________________________________________
lambda_20 (Lambda)              (None, 1)            0           dot_52[0][0]
                                                                 dot_53[0][0]
                                                                 dot_54[0][0]
__________________________________________________________________________________________________
lambda_21 (Lambda)              (None, 1)            0           dot_55[0][0]
                                                                 dot_56[0][0]
                                                                 dot_57[0][0]
__________________________________________________________________________________________________
lambda_22 (Lambda)              (None, 1)            0           dot_58[0][0]
                                                                 dot_59[0][0]
                                                                 dot_60[0][0]
__________________________________________________________________________________________________
lambda_23 (Lambda)              (None, 1)            0           dot_61[0][0]
                                                                 dot_62[0][0]
                                                                 dot_63[0][0]
__________________________________________________________________________________________________
lambda_24 (Lambda)              (None, 1)            0           dot_64[0][0]
                                                                 dot_65[0][0]
                                                                 dot_66[0][0]
__________________________________________________________________________________________________
lambda_25 (Lambda)              (None, 1)            0           dot_67[0][0]
                                                                 dot_68[0][0]
                                                                 dot_69[0][0]
__________________________________________________________________________________________________
lambda_26 (Lambda)              (None, 1)            0           dot_70[0][0]
                                                                 dot_71[0][0]
                                                                 dot_72[0][0]
__________________________________________________________________________________________________
lambda_27 (Lambda)              (None, 1)            0           dot_73[0][0]
                                                                 dot_74[0][0]
                                                                 dot_75[0][0]
__________________________________________________________________________________________________
lambda_28 (Lambda)              (None, 1)            0           dot_76[0][0]
                                                                 dot_77[0][0]
                                                                 dot_78[0][0]
__________________________________________________________________________________________________
lambda_29 (Lambda)              (None, 1)            0           dot_79[0][0]
                                                                 dot_80[0][0]
                                                                 dot_81[0][0]
__________________________________________________________________________________________________
lambda_30 (Lambda)              (None, 1)            0           dot_82[0][0]
                                                                 dot_83[0][0]
                                                                 dot_84[0][0]
__________________________________________________________________________________________________
lambda_31 (Lambda)              (None, 1)            0           dot_85[0][0]
                                                                 dot_86[0][0]
                                                                 dot_87[0][0]
__________________________________________________________________________________________________
lambda_32 (Lambda)              (None, 1)            0           dot_88[0][0]
                                                                 dot_89[0][0]
                                                                 dot_90[0][0]
__________________________________________________________________________________________________
lambda_33 (Lambda)              (None, 1)            0           dot_91[0][0]
                                                                 dot_92[0][0]
                                                                 dot_93[0][0]
__________________________________________________________________________________________________
lambda_34 (Lambda)              (None, 1)            0           dot_94[0][0]
                                                                 dot_95[0][0]
                                                                 dot_96[0][0]
__________________________________________________________________________________________________
lambda_35 (Lambda)              (None, 1)            0           dot_97[0][0]
                                                                 dot_98[0][0]
                                                                 dot_99[0][0]
__________________________________________________________________________________________________
lambda_36 (Lambda)              (None, 1)            0           dot_100[0][0]
                                                                 dot_101[0][0]
                                                                 dot_102[0][0]
__________________________________________________________________________________________________
lambda_37 (Lambda)              (None, 1)            0           dot_103[0][0]
                                                                 dot_104[0][0]
                                                                 dot_105[0][0]
__________________________________________________________________________________________________
lambda_38 (Lambda)              (None, 1)            0           dot_106[0][0]
                                                                 dot_107[0][0]
                                                                 dot_108[0][0]
__________________________________________________________________________________________________
lambda_39 (Lambda)              (None, 1)            0           dot_109[0][0]
                                                                 dot_110[0][0]
                                                                 dot_111[0][0]
__________________________________________________________________________________________________
lambda_40 (Lambda)              (None, 1)            0           dot_112[0][0]
                                                                 dot_113[0][0]
                                                                 dot_114[0][0]
__________________________________________________________________________________________________
lambda_41 (Lambda)              (None, 1)            0           dot_115[0][0]
                                                                 dot_116[0][0]
                                                                 dot_117[0][0]
__________________________________________________________________________________________________
lambda_42 (Lambda)              (None, 1)            0           dot_118[0][0]
                                                                 dot_119[0][0]
                                                                 dot_120[0][0]
__________________________________________________________________________________________________
lambda_43 (Lambda)              (None, 1)            0           dot_121[0][0]
                                                                 dot_122[0][0]
                                                                 dot_123[0][0]
__________________________________________________________________________________________________
lambda_44 (Lambda)              (None, 1)            0           dot_124[0][0]
                                                                 dot_125[0][0]
                                                                 dot_126[0][0]
__________________________________________________________________________________________________
lambda_45 (Lambda)              (None, 1)            0           dot_127[0][0]
                                                                 dot_128[0][0]
                                                                 dot_129[0][0]
__________________________________________________________________________________________________
lambda_46 (Lambda)              (None, 43)           0           lambda_3[0][0]
                                                                 lambda_4[0][0]
                                                                 lambda_5[0][0]
                                                                 lambda_6[0][0]
                                                                 lambda_7[0][0]
                                                                 lambda_8[0][0]
…
